Nlp/model.pth (torch, 19487 bytes, 2 tensors)

fc.weight f4 [6, 768]
00000000: b897 fabc dbbc b5ba 42a4 0d3c 0bac a4bc
00000010: 55e4 123c 353b 95bc 97bf e43c 40fc b33c
00000020: 7d78 82bc 2237 7bbb 1ef9 f83b 46e5 8cba
00000030: 3ba0 74bc 1275 ccbc 3c27 44bc 81b5 703c
00000040: 9405 b7bc 6109 f0bc 41ab bfba 37d4 e73b
00000050: 6e5f bd3c ea88 0a3d cde6 d3bc 5496 153b
00000060: a5d4 043c 0f17 f43c 9619 2b3c a345 8fbc
00000070: 393b 0c3c c298 d2bc 8eb5 b13c 0e85 df3c
00000080: e9fc 473c 85c4 483c af87 693c 03d1 193c
00000090: 799c ba3c d36d 2c3c 5460 28bc aea8 5d3c
000000a0: 0f2c 2c3b b324 08bd b52e ad3c 7acc aebc
000000b0: 1e54 593c 8050 a83c f861 b53c a822 4dbc
000000c0: a3e0 7ebc 07a6 f7bc 0e7c d03c decc 3e3c
000000d0: d06f a83c 9122 f03c ca8b 543b 8e20 9f39
000000e0: 9457 933c 2815 a43c 45c8 94bc 70a1 f9bb
000000f0: 04ee 80bc 3649 2abc c30c 3f3b 1bf9 febc
00000100: f17e 0ebc ec0c 2cbc 6b7f c13c ee42 023c
00000110: c998 b2bb c4ad 4a3c f7d0 043b 6859 65bc
00000120: c3f2 da3c 1b52 ffbc 86a8 6a3c 22d4 d13a
00000130: 6d7d b03c a687 12bb c552 d63c 8410 a93b
00000140: 5249 55bc 62ac 1dbd c757 873b d3f3 56bc
00000150: b7ca de3c d12e 6abb 478e ff3b 9508 bd3c
00000160: 1290 fbbc b9d9 1dbc 7b20 f8bc 4226 efbc
00000170: b384 2a3c 0df0 8c3c 00e1 11bd 3735 96bc
00000180: 4486 833c 5561 443c 082d 0abd e32d d7bc
00000190: 288e dfbb bf10 023d f427 27ba 4ef6 9f3b
000001a0: d1be f93c 40c3 aa3b e033 c63c e39c 85bc
000001b0: 2968 463c 8d36 623c 050a c9bb d0a1 fb3c
000001c0: 46cc adbb 581e e23c 5de0 6c3c ec54 403c
000001d0: d463 f73c cc5a 043d 34ac ef3c 3d89 f93c
000001e0: 98fe e23a 3b21 15bd 8799 8a3b 2c25 40bc
000001f0: 65ad e13c b58e 9d3c bf3b 03bb 5966 39bc
00000200: fe3a a63c d2a6 5cbc 055d 9e3c 8327 883c
00000210: 2464 d03c a320 b7bc a554 afbc 834d 613c
00000220: 759a 03bd e018 0fbd f30d 413b d6e7 e23c
00000230: d481 243c c7c7 b6bc 2d68 903c e65b 803b
00000240: 1d14 f1bc 4efe 993c b70b 50bc 4a0d 923c
00000250: d61b ecbc 7ef4 1bbd cdd2 fa3c 4aa7 d73b
00000260: d848 19bc c95d a7bc a0c0 c1bc 087a 1dbd
00000270: 8895 aabc edce 943c e686 09bc d91e 093b
00000280: 2e70 8ebb 8788 eabc 816a 1ebc 198f dd3c
00000290: 5982 8dbc 9aed 7cbc 4e36 14bc e5d5 fc3c
000002a0: dbda 623c f1d9 f93c b0db da3c 33db 00ba
000002b0: 79ad c6bc aad3 acbc 4655 19bd 8986 fcbc
000002c0: 94a3 113d 63a2 cbbc 42f6 8abc 5997 9abc
000002d0: d158 e8bb 64d0 c2bc 7ea0 96bc f2c0 ccbb
000002e0: 461d 093d dc84 6a3c 9f79 23bc a117 083d
000002f0: dd5b ff3c 8439 b53b 6190 053c 50f6 093d
00000300: 041c 9ebc f64d 9c3b d5b2 5ebc c295 05bd
00000310: 8e34 fbbc bd38 9bbc b36b edbc 5e02 163a
00000320: 2db3 abbb 0f72 9ebb fa68 713c cede fcbc
00000330: 9b03 063d ad12 d7bc d929 f03a 69e4 0e3d
00000340: 9fea e6bb ae75 963c de75 e53c 8927 b23a
00000350: e4d4 03bd c21a 51bc 1012 363b ca17 4d3b
00000360: 132c dfbc 3582 dcbc 1123 543a 9404 54bc
00000370: d61f d1bc 4265 e23b bd53 513c 0771 eb3c
00000380: 3227 cbbc fcd4 c23c 3e7e 81bc 78d9 0bbb
00000390: 5cd6 19bd 25b4 ebbc 1c6f acbc 987d db3c
000003a0: c84b 843b b2a1 ed3b 046d 3abc 7f06 11bd
000003b0: 1416 a73b 694a ad3c b0c1 0e3d b6d8 55bb
000003c0: 2152 823c 25e5 b93b 5b26 8e3b 26e1 d9bb
000003d0: c8f0 d8bc 1be0 023c 220a b5bc 494a b0bc
000003e0: f370 b9bc 3466 d03c 8479 d83c c74a 823c
000003f0: d8a2 883c 79ce af3b 1cee 1ebd 3c22 153c
-0.030589923 -0.0013865487 0.008645119 -0.020101568 0.008965571 -0.018216709 0.027923388 0.021970868
-0.015926594 -0.0038332422 0.0075980565 -0.0010749481 -0.01493078 -0.024958167 -0.011972245 0.014691711
-0.022341527 -0.029301347 -0.0014623181 0.0070748585 0.023116793 0.033821978 -0.02586689 0.0022825198
0.008107339 0.029796151 0.010443112 -0.01748926 0.008559042 -0.025707606 0.021693017 0.027285125
0.012206295 0.012253885 0.014253541 0.009388211 0.02277969 0.010524231 -0.010276873 0.013528986
0.0026271378 -0.033238124 0.021140436 -0.021337736 0.013264684 0.020546198 0.022141442 -0.01252047
-0.015556487 -0.030230535 0.025449779 0.011645524 0.020561129 0.029313358 0.0032431954 0.00030351098
0.017986096 0.02002962 -0.018161902 -0.007618122 -0.015738495 -0.010393431 0.0029151894 -0.031124642
-0.008697257 -0.010501128 0.023620328 0.007950528 -0.0054503423 0.0123705305 0.0020266154 -0.013998367
0.026727086 -0.03116708 0.014322406 0.0016008655 0.021544183 -0.0022358685 0.026162514 0.0051594395
-0.013017969 -0.038494475 0.004130337 -0.013119656 0.027196271 -0.003573347 0.007798943 0.023075381
-0.030708347 -0.009634429 -0.030288925 -0.029193047 0.0104076145 0.017204309 -0.035614967 -0.018335922
0.016055234 0.011986096 -0.03373435 -0.026266998 -0.0068223663 0.03175425 -0.0006376498 0.0048816567
0.030486496 0.005211264 0.024194658 -0.016310161 0.012109795 0.013806951 -0.0061352276 0.030716807
-0.0053038923 0.02760236 0.014457789 0.011738997 0.030198969 0.032313153 0.029256918 0.030460948
0.0017318306 -0.036408644 0.0042297277 -0.011727612 0.027548501 0.019233087 -0.0020024625 -0.0113159055
0.020291802 -0.013467507 0.019331465 0.016620403 0.025438376 -0.02235443 -0.021402666 0.01375139
-0.032129724 -0.034935832 0.0029457777 0.027698439 0.010040719 -0.022312058 0.0176278 0.003917205
-0.029428536 0.01879802 -0.012698106 0.017828602 -0.028821867 -0.038074963 0.030618096 0.0065812217
-0.009355746 -0.020430462 -0.023651421 -0.038446456 -0.020823255 0.018165076 -0.008393979 0.0020922928
-0.004346869 -0.028629554 -0.009668947 0.027045773 -0.017274069 -0.015437508 -0.00904615 0.030863712
0.0138461245 0.03049943 0.026716083 -0.0004915476 -0.02425264 -0.021097023 -0.03743484 -0.03082587
0.03555639 -0.024857705 -0.016963128 -0.018870996 -0.007090666 -0.023781009 -0.018387076 -0.006248587
0.033475183 0.014313903 -0.009977727 0.03322566 0.031171734 0.005530538 0.008152098 0.033682168
-0.019300468 0.004770036 -0.013592442 -0.032613523 -0.030664708 -0.018947953 -0.028982019 0.00057223986
-0.0052398653 -0.004835374 0.014734501 -0.03086796 0.032718282 -0.026254022 0.0018323018 0.034885798
-0.007047012 0.01836666 0.028010305 0.0013592105 -0.03218545 -0.012762727 0.0027781762 0.0031294697
-0.027242696 -0.026917556 0.00080923835 -0.012940545 -0.025527876 0.0069090435 0.012776312 0.02874042
-0.024798963 0.0237832 -0.015807267 -0.0021339338 -0.037557945 -0.028772423 -0.021049075 0.026793286
0.004037354 0.0072519416 -0.01137853 -0.035406586 0.0050990675 0.021153646 0.034852684 -0.003263039
0.015908303 0.005673068 0.0043380684 -0.0066491542 -0.026482001 0.007988001 -0.022099558 -0.021519797
-0.022636866 0.02543936 0.02642513 0.015904797 0.016679212 0.0053651896 -0.038801298 0.0091024

fc.bias f4 [6]
00000000: 90ad c039 83c1 cc3b 0721 c63c a490 03bc
00000010: 1312 8f3b d7b9 0fbc
0.00036750408 0.0062486543 0.02418567 -0.0080300905 0.0043661683 -0.008772335
